…
e, stochastic=False, test=False, test_atol=None, test_batch_size=1000, test_rtol=None, test_solver=None, time_scale=0.5, top_k_reg=0.0, train_T=True, training_noise=0.1, use_cpu=True, use_density=False, use_growth=True, use_magnitude=False, val_freq=100, vecint=None, viz_batch_size=2000, viz_freq=100, viz_freq_growth=100, weight_decay=1e-05, whiten=False)
SequentialFlow(
  (chain): ModuleList(
    (0): CNF(
      (odefunc): RegularizedODEfunc(
        (odefunc): ODEfunc(
          (diffeq): ODEnet(
            (layers): ModuleList(
              (0): ConcatSquashLinear(
                (_layer): Linear(in_features=10, out_features=64, bias=True)
                (_hyper_bias): Linear(in_features=1, out_features=64, bias=False)
                (_hyper_gate): Linear(in_features=1, out_features=64, bias=True)
              )
              (1-2): 2 x ConcatSquashLinear(
                (_layer): Linear(in_features=64, out_features=64, bias=True)
                (_hyper_bias): Linear(in_features=1, out_features=64, bias=False)
                (_hyper_gate): Linear(in_features=1, out_features=64, bias=True)
              )
              (3): ConcatSquashLinear(
                (_layer): Linear(in_features=64, out_features=10, bias=True)
                (_hyper_bias): Linear(in_features=1, out_features=10, bias=False)
                (_hyper_gate): Linear(in_features=1, out_features=10, bias=True)
              )
            )
            (activation_fns): ModuleList(
              (0-2): 3 x Tanh()
            )
          )
        )
      )
    )
  )
)
Number of trainable parameters: 10281
/home/aarthivenkat/.local/lib/python3.8/site-packages/TrajectoryNet/main.py
""" main.py

Learns ODE from scrna data

"""
import os
import matplotlib
import matplotlib.pyplot as plt
…
e, stochastic=False, test=False, test_atol=None, test_batch_size=1000, test_rtol=None, test_solver=None, time_scale=0.5, top_k_reg=0.0, train_T=True, training_noise=0.1, use_cpu=True, use_density=False, use_growth=True, use_magnitude=False, val_freq=100, vecint=None, viz_batch_size=2000, viz_freq=100, viz_freq_growth=100, weight_decay=1e-05, whiten=False)
SequentialFlow(
  (chain): ModuleList(
    (0): CNF(
      (odefunc): RegularizedODEfunc(
        (odefunc): ODEfunc(
          (diffeq): ODEnet(
            (layers): ModuleList(
              (0): ConcatSquashLinear(
                (_layer): Linear(in_features=2, out_features=64, bias=True)
                (_hyper_bias): Linear(in_features=1, out_features=64, bias=False)
                (_hyper_gate): Linear(in_features=1, out_features=64, bias=True)
              )
              (1-2): 2 x ConcatSquashLinear(
                (_layer): Linear(in_features=64, out_features=64, bias=True)
                (_hyper_bias): Linear(in_features=1, out_features=64, bias=False)
                (_hyper_gate): Linear(in_features=1, out_features=64, bias=True)
              )
              (3): ConcatSquashLinear(
                (_layer): Linear(in_features=64, out_features=2, bias=True)
                (_hyper_bias): Linear(in_features=1, out_features=2, bias=False)
                (_hyper_gate): Linear(in_features=1, out_features=2, bias=True)
              )
            )
            (activation_fns): ModuleList(
              (0-2): 3 x Tanh()
            )
          )
        )
      )
    )
  )
)
Number of trainable parameters: 9225
Iter 0001 | Time 3.0383(3.0383) | Loss 3.993577(3.993577) | NFE Forward 14(14.0) | NFE Backward 105(105.0)
Iter 0002 | Time 2.8810(3.0273) | Loss 3.905859(3.987437) | NFE Forward 14(14.0) | NFE Backward 105(105.0)
…
